models/transaction_classifier_gcn.pth (torch, 69943 bytes, 5 tensors)

layers.0.bias f4 [100]
0	0x3cb8ffda	0.022582937
1	0xbd17be9d	-0.037047017
2	0x3e6144fc	0.21998972
3	0x3c139286	0.009007102
4	0xbc56f0d9	-0.013118946
5	0xbd0b9650	-0.034078896
6	0xbc22efc6	-0.009944862
7	0xbbe4b78e	-0.0069798892
8	0x3d80105c	0.0625312
9	0x3d524ca2	0.051342614
10	0x3f0ba1ba	0.5454365
11	0x3d67263d	0.05643295
12	0xbc0d084a	-0.008607933
13	0xba9692bf	-0.0011487826
14	0x3ba16702	0.0049256096
15	0x3cc12978	0.023579344
16	0xbcadf0aa	-0.021232922
17	0x39ae3a30	0.0003323122
18	0x3e4f755c	0.20259613
19	0xbd6cb0c4	-0.057785764
20	0xbd8a16be	-0.06742619
21	0x3d19c56a	0.037541784
22	0x3e560828	0.20901549
23	0x3c9156f9	0.017741667
24	0xba5633e0	-0.0008171182
25	0x3d843911	0.06456197
26	0x3cb3ff1c	0.021972232
27	0x3d8f5d7f	0.07000255
28	0xbc9e0042	-0.019287232
29	0x3cdd415d	0.027008707
30	0x3d539256	0.05165323
31	0x3b2ad98d	0.0026069612
32	0x3df5c9fa	0.120014146
33	0x3d4d1786	0.05007126
34	0x3c9cf2a2	0.019158665
35	0x3dd0ac87	0.10189157
36	0xbd557396	-0.052112184
37	0xbc0305b6	-0.007996967
38	0xbbb98068	-0.005661059
39	0x3d7fef91	0.062484328
40	0x3d859790	0.06523049
41	0x3cc64f62	0.024207775
42	0xbc807d15	-0.015684644
43	0xbc4a0c82	-0.012332084
44	0x3d33c19b	0.04388581
45	0x3e31b5db	0.17354529
46	0x3cff2e00	0.031149864
47	0x3da82428	0.08210021
48	0xbd87570b	-0.06608399
49	0x3e1e42bf	0.15455149
50	0xbb682815	-0.0035424281
51	0x3d306cde	0.043072574
52	0xbdecb3f1	-0.115577586
53	0xbd13e0e5	-0.036103148
54	0x3dc91c56	0.09819858
55	0xb99493f9	-0.00028339008
56	0xbe8204fc	-0.25394428
57	0x3c6a928b	0.014317165
58	0xbde4aedf	-0.111661665
59	0x3e52f674	0.20601827
60	0xbc9cfbca	-0.019163031
61	0x3d1cc7f4	0.038276628
62	0x3c6fc906	0.01463533
63	0xbd6a97eb	-0.057273787
64	0xbd11181e	-0.03542339
65	0x3d08a37e	0.033359043
66	0xbc935fda	-0.017990042
67	0xbd1247b6	-0.03571292
68	0xbc5f7fcf	-0.013641312
69	0x3da3504d	0.079743005
70	0x3c85c17e	0.016327616
71	0x3c9453f8	0.018106446
72	0x3d7367c8	0.059425145
73	0x3d81099e	0.063006625
74	0xbd16b4a2	-0.03679336
75	0x3da8a91b	0.08235379
76	0x3e9482c7	0.29006025
77	0xbd701236	-0.058611117
78	0x3d92f6a7	0.071759515
79	0x3d4c0d63	0.049817454
80	0x3bdb70ea	0.00669681
81	0x3bf8a3b1	0.007587873
82	0xbd45f4f5	-0.048329312
83	0xbdbd3ebe	-0.09240483
84	0x3bdedb0c	0.0068010148
85	0xbc841730	-0.016124338
86	0x3d5aec06	0.053447746
87	0xbcfe7fb9	-0.031066762
88	0xbc734a70	-0.01484929
89	0x3df45f20	0.11932206
90	0x3d169165	0.036759753
91	0x3d91c911	0.071184285
92	0xbaf44594	-0.0018636459
93	0x3db9414d	0.09045658
94	0x3dbfbce1	0.09362198
95	0x3d95e50b	0.07319077
96	0x3e8d3b6e	0.27584404
97	0xbc601b8f	-0.0136784455
98	0xbd82f36a	-0.06394084
99	0x3dcf15fa	0.101116136

layers.0.lin.weight f4 [100, 165]
0	0x3c117686	0.008878356
1	0xbe2b643e	-0.16737458
2	0x3e92d781	0.2868004
3	0x3c9d8dd1	0.019232662
4	0xbb8ecf02	-0.0043581733
5	0x3d06960f	0.03285795
6	0xbd82f63b	-0.06394621
7	0x3c783408	0.015149124
8	0x3c25149e	0.010075716
9	0xbb5b884a	-0.0033497983
10	0x3c859f11	0.0163112
11	0xbdc00da8	-0.09377605
12	0xbdf36941	-0.1188531
13	0x3bb8dec1	0.0056417887
14	0x3b1af9d7	0.0023647451
15	0x3cc65cb5	0.024214128
16	0x3bccc4d8	0.0062490515
17	0xbcd25d4d	-0.025679255
18	0xbd0cafaf	-0.034347232
19	0xbd5fc29d	-0.054628957
20	0xbd1ff78c	-0.03905444
21	0x3c666cf5	0.014064063
22	0x3cb6768a	0.02227332
23	0x3ce7ce8a	0.028296728
24	0x3cc1f3e7	0.023675872
25	0x3d3d9d24	0.04629244
26	0xbd1a8b93	-0.037730765
27	0x3c5d79e8	0.013517834
28	0x3cb64b59	0.022252725
29	0x3ce8cfd9	0.028419422
30	0x3cc6df24	0.024276324
31	0x3d407647	0.046987798
32	0xbd14151f	-0.036152955
33	0xbcc6dfb8	-0.0242766
34	0xbc9511f5	-0.01819704
35	0x3c934ce6	0.017981004
36	0xbcb49239	-0.02204238
37	0x3a0902bf	0.00052265445
38	0x3c969a8d	0.018384242
39	0x3cb0958f	0.02155569
40	0x3d3c93c8	0.046039373
41	0x3d80b2eb	0.06284126
42	0x3d047b25	0.032344002
43	0x3dbcdb9e	0.09221576
44	0x3dd3821c	0.10327551
45	0x3c9e783d	0.019344443
46	0x3cf69ea3	0.03010494
47	0x3d52f78e	0.051505618
48	0x3cd6336e	0.02614757
49	0x3d93804d	0.07202206
50	0x3dedda9a	0.116139606
51	0x3c9a73ec	0.018854104
52	0x3be8a5d3	0.007099846
53	0x3da8ee54	0.082485825
54	0x3d17cc1c	0.03705989
55	0xbc994992	-0.018711839
56	0x3c87ad0f	0.016562013
57	0x3d5ebe00	0.054380417
58	0x3d03b4b3	0.03215475
59	0x3d2e4d03	0.042553913
60	0x3d7123b0	0.058871925
61	0x3bf82e2b	0.007573863
62	0x3da16fca	0.0788265
63	0x3d5e2c37	0.054241385
64	0x3d02efef	0.0319671
65	0x3d2d8eec	0.04237263
66	0x3d713943	0.0588925
67	0x3d4ec177	0.05047747
68	0x3df19ed2	0.11797871
69	0xbceb7dcf	-0.028746514
70	0xbc10d7d2	-0.008840518
71	0x3bfe1cd5	0.007754902
72	0x3baae8a8	0.005215723
73	0xbdb8771c	-0.09007093
74	0xbdc9ed34	-0.09859696
75	0x3cf64e1b	0.03006654
76	0x3cb109fe	0.02161121
77	0x3d251011	0.040298525
78	0x3d594003	0.053039562
79	0xbe12b1ba	-0.1432561
80	0xbe14aa6f	-0.1451814
81	0x3d7ddd88	0.061978847
82	0xbbaa6c88	-0.005200926
83	0x3c56ac1c	0.0131025575
84	0x3d02299b	0.03177796
85	0xbe0a2fec	-0.13494843
86	0xbd71eb6f	-0.059062418
87	0x3e4d72dd	0.20063348
88	0xbddf1224	-0.10892132
89	0xbe324b4a	-0.17411533
90	0x3db79b24	0.089651376
91	0x3d589f33	0.0528862
92	0x3e2f5ff0	0.17126441
93	0x3d16293e	0.036660425
94	0xbd1b386d	-0.03789561
95	0xbd811576	-0.063029215
96	0x3d36c0c4	0.04461743
97	0x3d6a74a9	0.057240162
98	0x3cceac0e	0.025228526
99	0x3b0638ce	0.0020480636
100	0xbc7aec31	-0.0153151015
101	0xbd9674a5	-0.07346467
102	0xbc83561b	-0.01603227
103	0x3cd0727b	0.025445214
104	0x3cb1ec6f	0.021719186
105	0xbcba52e7	-0.022744609
106	0xbdaff347	-0.08591323
107	0xbd8884e2	-0.066659704
108	0xbd099645	-0.033590574
109	0x3d48b3fa	0.048999764
110	0xbd316baa	-0.043315567
111	0xbdae5097	-0.08511465
112	0xbd959831	-0.07304419
113	0x3d39263b	0.045202475
114	0xbe0fcdb2	-0.1404331
115	0xbd9cec72	-0.07662286
116	0xbd2b5321	-0.041827325
117	0x3d973f87	0.07385164
118	0x3ccaece8	0.024771169
119	0x3cbf1a43	0.023327952
120	0x3db0e2fc	0.08637044
121	0x3d933663	0.07188108
122	0x3d81daef	0.063405864
123	0x3dbc1b2c	0.0918487
124	0xbdabdaf7	-0.083913736
125	0xbda29acf	-0.07939684
126	0x3d9332fe	0.0718746
127	0x3c2280aa	0.009918371
128	0x3d41086e	0.04712718
129	0xbd7cfe6c	-0.061766073
130	0x3c8c7d15	0.017149488
131	0x3d5c862a	0.053838886
132	0x3d3843cf	0.044986542
133	0x3d501bb8	0.050807685
134	0x3da89c79	0.0823297
135	0xbdd0e904	-0.10200694
136	0xbe0d916c	-0.13825005
137	0xbe132cf4	-0.14372617
138	0xbe280dfe	-0.16411588
139	0x3e089bd5	0.13340695
140	0x3e44ab3f	0.1920595
141	0xbe118675	-0.14211448
142	0xbd67ecf7	-0.05662247
143	0x3b837467	0.004011679
144	0xbdee6683	-0.11640646
145	0xbdc763cb	-0.09735831
146	0xbe16f3a2	-0.14741376
147	0xbe443235	-0.19159777
148	0x3c59d562	0.013295503
149	0x3dad7ed2	0.08471455
150	0xbe3d5909	-0.18490995
151	0x3e9c2f71	0.30504945
152	0x3e9d387d	0.3070716
153	0xbec4d0dc	-0.38440597
154	0xbcd228b2	-0.02565417
155	0x3e390350	0.1806767
156	0xbe81e7dd	-0.2537221
157	0x3dcd045b	0.10010596
158	0xbbfec648	-0.007775102
159	0x3e10be7f	0.14135168
160	0xbdd77a3e	-0.10521363
161	0xbd136e69	-0.035993967
162	0x3e3c7858	0.18405282
163	0xbb146945	-0.0022645753
164	0x3c4a17e6	0.012334799
165	0xbd46c166	-0.048524283
166	0x3d662a71	0.05619282
167	0xbe44762e	-0.19185707
168	0xbd5ce309	-0.053927455
169	0xbdde7faf	-0.108641975
170	0xbd9511f5	-0.07278816
171	0x3d834778	0.06410116
172	0xbd0e9dd3	-0.03481848
173	0x3cc76579	0.024340378
174	0xbbb0bded	-0.0053937347
175	0xbd7e4a54	-0.062082604
176	0x3d6454a1	0.05574477
177	0xbbe3dd1d	-0.006953849
178	0x3d9e9a3d	0.07744262
179	0xbbe7ed98	-0.007077884
180	0x3b731df2	0.0037096706
181	0x3d139372	0.036029287
182	0x3c3972ef	0.011318906
183	0xbd2cc2a9	-0.04217783
184	0x3c78b7f8	0.01518058
185	0x3d2ae897	0.04172572
186	0xbb53da75	-0.0032326255
187	0xbac7e8a5	-0.0015251829
188	0x3b17a16e	0.002313699
189	0xbb27c271	-0.0025598074
190	0xbc2647e0	-0.010148972
191	0xbcad23a4	-0.021135159
192	0xbb5e2737	-0.0033897886
193	0xbacb54fd	-0.0015512999
194	0x3b181c40	0.0023210198
195	0xbb1bdccb	-0.0023782726
196	0xbd5cca2e	-0.05390375
197	0x3d6020ac	0.05471866
198	0x3a2fe5d3	0.00067099667
199	0x3a6e4db7	0.000909056
200	0x3a6dcaaa	0.0009071032
201	0x3a46a8d5	0.00075782585
202	0xbd9fe29c	-0.07806894
203	0xbdc8c652	-0.098034516
204	0xbcf2e48f	-0.02965
205	0xbd16a96f	-0.03678268
206	0xbc7d2d66	-0.015452718
207	0xbd3cec25	-0.046123642
208	0xbd8047ef	-0.0626372
209	0xbc1b6f94	-0.0094870515
210	0xbcd9fd6d	-0.0266101
211	0xbd2e5d3e	-0.04256939
212	0xbc273bc6	-0.010207122
213	0xbd327d93	-0.04357679
214	0xbce26f92	-0.027641091
215	0x3d2ea48f	0.042637404
216	0xbe75d4bd	-0.24006934
217	0xbe624f1d	-0.22100492
218	0xbe48e050	-0.19616818
219	0xbe898850	-0.2686181
220	0x3d9aa6cb	0.075513445
221	0x3dc78653	0.09742417
222	0xbd0a344a	-0.033741273
223	0xbc0b039f	-0.00848475
224	0xbb93dc16	-0.0045123203
225	0xbc4a3801	-0.012342454
226	0x3cabcdc3	0.020972138
227	0x3cb5cf04	0.02219344
228	0xbd0afd59	-0.033933017
229	0xbc0e5ed3	-0.0086896
230	0xbb99834b	-0.004684841
231	0xbc5d66a0	-0.013513237
232	0xbd04927d	-0.032366265
233	0xbcf30678	-0.02966617
234	0x3d10195f	0.035180446
235	0x3a1bf043	0.00059485825
236	0x3b44f841	0.0030055197
237	0x3bdce6a7	0.006741363
238	0xbd6a88aa	-0.05725924
239	0xbda0060a	-0.07813652
240	0x3c44eb89	0.012019047
241	0xbd9953bf	-0.074866764
242	0xbd774749	-0.060370717
243	0xbd8b0999	-0.0678894
244	0xbd5b7757	-0.05358061
245	0xbda80d1a	-0.08205624
246	0xbcdb0783	-0.02673698
247	0xbd6c0292	-0.05761964
248	0xbd7e4cb7	-0.06208488
249	0xbd6adc7c	-0.057339177
250	0x3ae9ff50	0.0017852578
251	0xbd9b15f4	-0.075725466
252	0x3ddac0a4	0.106812745
253	0x3c8ec508	0.017427936
254	0xbe0655b2	-0.13118628
255	0xbd86aea9	-0.065762825

layers.1.bias f4 [2]
0	0x3da6eef1	0.08151043
1	0xbcb5f514	-0.022211589

layers.1.lin.weight f4 [2, 100]
0	0x3e90cf3c	0.28283107
1	0xbc814443	-0.01577962
2	0x3ecd9210	0.401505
3	0x3e7c330a	0.24628845
4	0xbe8aa231	-0.27076867
5	0xbdad97d8	-0.084762275
6	0x3e2bf262	0.1679168
7	0xbe6f6ebe	-0.23382089
8	0x3e59bd28	0.21263564
9	0x3e95ff1a	0.2929619
10	0x3f01b384	0.50664544
11	0x3ea19397	0.31557915
12	0xbda0eaed	-0.078573085
13	0xbddaba7f	-0.106801026
14	0xbe0f89dd	-0.14017434
15	0x3dcc3ced	0.09972558
16	0xbe94bf60	-0.29052258
17	0x3c913e17	0.017729802
18	0x3f171f7e	0.5903243
19	0xbe829cc9	-0.25510243
20	0xbe44aca3	-0.1920648
21	0x3d7f9f63	0.062407862
22	0x3e819127	0.25306055
23	0x3d715a28	0.05892387
24	0x3e1922b7	0.14954649
25	0x3e8c7c4a	0.27438575
26	0x3e40c74a	0.18826023
27	0x3eb8a2de	0.36061758
28	0xbd9b2fc8	-0.07577473
29	0x3e8744b8	0.26419616
30	0x3e175bb7	0.1478108
31	0x3e522eb9	0.20525636
32	0x3ee8cee6	0.4547035
33	0x3e2a719f	0.16644906
34	0xbe7beed2	-0.24602821
35	0x3ed94dbb	0.42442116
36	0xbe4e326a	-0.20136419
37	0x3b590b27	0.003311822
38	0x3e9001a1	0.28126243
39	0x3de91f1a	0.11382885
40	0x3e019f2d	0.12658377
41	0x3c93f6ff	0.018062113
42	0x3e4fb8e4	0.20285374
43	0xbe444a7b	-0.19169037
44	0x3e320b9f	0.17387246
45	0x3eab2eaa	0.3343404
46	0x3e37d59d	0.17952581
47	0x3ea18918	0.31549907
48	0xbea5dfea	-0.32397395
49	0x3e91e643	0.28495988
50	0xbe111a7d	-0.1417026
51	0x3e4965c4	0.19667727
52	0xbec61445	-0.3868734
53	0xbe1750a8	-0.14776862
54	0x3eca7b5e	0.39547247
55	0xbec40052	-0.38281494
56	0xbf15b7eb	-0.5848376
57	0xbea087bd	-0.3135356
58	0xbebf4fae	-0.37365478
59	0x3edf2473	0.43582496
60	0xbe986fb4	-0.29772723
61	0xbd8d3aad	-0.06895957
62	0xbea099af	-0.3136725
63	0xbe8cd0d0	-0.2750306
64	0xbe154b84	-0.14579588
65	0xbcc65a6d	-0.02421304
66	0x3b76794b	0.0037608917
67	0xbe0fe5ae	-0.1405246
68	0xbd99f00b	-0.07516488
69	0x3ed5a4ac	0.41727197
70	0x3de25203	0.11050799
71	0xbd794140	-0.060853243
72	0x3e68e875	0.22744925
73	0x3ea4f85c	0.32220733
74	0x3ed3b43c	0.41348445
75	0x3e9aaace	0.3020844
76	0x3f0016ba	0.5003468
77	0xbe36dbc6	-0.17857274
78	0x3e85ae51	0.26109555
79	0x3ee5b038	0.44861007
80	0xbe8854a9	-0.2662709
81	0x3e3f1895	0.18661721
82	0xbe84322d	-0.2581953
83	0xbef6b0ff	-0.48181912
84	0xbeb757e8	-0.35809255
85	0x3e2671a0	0.16254282
86	0x3e17857a	0.14797011
87	0xbe89540d	-0.26821938
88	0xbddddb33	-0.108328246
89	0x3e9c4d14	0.30527556
90	0xbe8a83ed	-0.27053776
91	0x3ec1bf94	0.37841475
92	0x3e7d7302	0.24750903
93	0x3e5aca14	0.21366149
94	0x3e527a60	0.20554495
95	0x3ead1317	0.33803627
96	0x3ee22838	0.4417131
97	0xbe7d900a	-0.24761978
98	0xbe8a4e80	-0.27013016
99	0x3e9526db	0.29131207
100	0xbe1b4a97	-0.15165173
101	0x3eb0c377	0.34524128
102	0x3e2697bb	0.16268818
103	0x3d6c9de9	0.057767782
104	0xbe081d0a	-0.13292328
105	0xbe916915	-0.28400484
106	0xbe1140d0	-0.1418488
107	0x3e295804	0.16537482
108	0xbde94976	-0.11390965
109	0xbd86c893	-0.06581225
110	0xbe9d5861	-0.3073149
111	0xbc63829c	-0.01388612
112	0xbe597dc3	-0.2123938
113	0x3e7c6080	0.24646187
114	0x3e7ee6bc	0.24892706
115	0xbe1c9a5c	-0.15293258
116	0x3e6bf114	0.23041183
117	0xbe43cd54	-0.19121295
118	0xbd7a1547	-0.061055448
119	0x3eccfc66	0.40036315
120	0xbbc1143d	-0.005892305
121	0xbe655d55	-0.22398885
122	0xbecc105f	-0.3985624
123	0x3ea20ca2	0.31650263
124	0xbe8df948	-0.2772925
125	0x3e5ceaed	0.21573992
126	0xbe8af3b4	-0.27139056
127	0xbd8402f5	-0.064458765
128	0xbe66034e	-0.22462198
129	0xbd8f1d36	-0.069879934
130	0xbeb4ee12	-0.35337883
131	0xbe5a1c8a	-0.2129995
132	0xbeffa016	-0.49926823
133	0x3e293d51	0.16527297
134	0x3eb34e00	0.35020447
135	0xbe4c1583	-0.19930081
136	0x3e83ce00	0.25743103
137	0xbe776690	-0.24160218
138	0xbb5963a7	-0.003317097
139	0x3e1a4015	0.15063508
140	0x3e80114b	0.25013193
141	0x3dd901ab	0.10596021
142	0xbdcd6df4	-0.100307375
143	0x3e809c75	0.25119367
144	0x3e8fc16c	0.28077257
145	0xba804132	-0.0009785055
146	0xbe19c660	-0.1501708
147	0x3dfdad9e	0.123866305
148	0xbcb5413b	-0.02212583
149	0x3da5c8c7	0.08094936
150	0x3e94dab2	0.290731
151	0xbe64f724	-0.22359902
152	0x3e95af2d	0.2923521
153	0x3e95f5f4	0.2928921
154	0x3c44f0e7	0.012020326
155	0x3e6508d9	0.22366656
156	0x3f0e4e2e	0.5558804
157	0xbce2a942	-0.027668599
158	0xbe12ff4e	-0.14355204
159	0xbef8ba39	-0.48579577
160	0x3eb09b10	0.34493303
161	0x3e32ec98	0.17473066
162	0x3e864f16	0.26232213
163	0xbc878f39	-0.016547786
164	0xbe2ef923	-0.17087226
165	0xbe426ebb	-0.18987553
166	0x3e294c7b	0.16533081
167	0x3e33fa4c	0.1757595
168	0x3e826598	0.25468135
169	0xbd5447e7	-0.051826384
170	0xbe8dfac1	-0.27730373
171	0xbe60532c	-0.21906728
172	0xbe8c427a	-0.27394468
173	0x3c557499	0.013028287
174	0xbe1f0a0c	-0.15531176
175	0xbe146375	-0.14491065
176	0xbe60d804	-0.21957403
177	0xbd51f1eb	-0.0512561
178	0xbe830c50	-0.2559533
179	0xbe2e222e	-0.17005226
180	0x3d13fce9	0.036129866
181	0xbe05ceb2	-0.13067129
182	0x3e96cc76	0.29452866
183	0x3e5939d5	0.21213467
184	0x3eb2d0ac	0.3492483
185	0xbea545db	-0.32279858
186	0x3e305e57	0.17223488
187	0x3e7e9aa5	0.2486368
188	0x3d958f8e	0.073027715
189	0xbec3b6da	-0.38225442
190	0x3e4745b3	0.19460182
191	0x3e2ef962	0.1708732
192	0xbe56612e	-0.20935509
193	0xbeb5631b	-0.35427174
194	0xbd6876d8	-0.056753963
195	0x3da59cec	0.08086571
196	0xbe85a379	-0.26101282
197	0xbe460355	-0.19337209
198	0x3e43f12a	0.19134966
199	0xbec19420	-0.37808323

loss_fn.weight f4 [2]
0	0x3e99999a	0.3
1	0x3f333333	0.7
